wavs/B027aTy.wav.emo.npy (npy, 4224 bytes, 1 tensors)

array f4 [1024]
00000000: 59bf f1bb 381b ba3b bed5 0cbc b325 d0bb
00000010: 4dca 7bbb 1ad2 debb c905 bf3d 2a03 e63b
00000020: a91f 48bc 351e f8ba 8ad6 da3b 0f21 70bb
00000030: cf88 ba3b ef80 1d3c bce1 a7bb 944d e2bb
00000040: 9246 013e 22c9 d63b ab0d 89bc dc46 18bc
00000050: 9fdb 103c 8d4e bfbb 8853 7abb 3eac c43b
00000060: 5350 e0bb 8639 513b b770 ae3b 7750 38bc
00000070: 4fbb bdbb dbc6 c23b 68cb 9f3b 3a23 9c3c
00000080: 1961 c4bb c732 c23a b21c 6abb ad05 ea3b
00000090: f66f c73b b9bf 65bb 75e0 88bc 1628 9dbb
000000a0: 9951 0d3b e00f 803b 2bf8 103b 2fe4 73bd
000000b0: a883 903c 5b61 943d 0ba7 d6bb 596c 803b
000000c0: 8234 56bd f9ed 4ebd 1168 a6bb 1186 a63d
000000d0: c4da a2bb b79e 02bc 0462 afbb ce84 803b
000000e0: cdcd 16bd e625 c43d a656 a83c e8c7 fc3a
000000f0: 2358 873b eb5c 43be eddf 733b c8e3 05bc
00000100: 119a 09bc bc33 00bc 70f2 cd3b 0448 08bc
00000110: 661e f13b e6fb f7bb 4348 00bb 6f67 8cbd
00000120: a840 19bc 724f c73b e6b4 7dbb 73da 0a3c
00000130: 2de0 e73b 3557 a23e 40b8 333c e843 71bb
00000140: 8c2b 4fbc d866 213c 79e3 333d 0d1d f1bb
00000150: fc24 f23b 03ba cb3b edf1 c43b 02df cb3b
00000160: f283 95ba 80f2 0cbc 2067 42ba 8db3 083c
00000170: c984 1b3c 51ef d6bb 13a0 57bb 53d9 2aba
00000180: 631c 5f3c 3cd4 27bc 0044 5bb9 6865 e73c
00000190: bc0b 1f3c 1e06 173c d73d f93b 4d81 1a3e
000001a0: ae80 13bc e497 f3bb d085 063c 96bd 62bd
000001b0: 6906 f5bc 13ec 153c 755e 25bc 793a 633d
000001c0: 9998 e73d 4feb bd3c 8541 a2bb a2e5 cc3b
000001d0: 6a87 cebd 6d69 f4bb 9c9e 91bd 32a6 6f3c
000001e0: bd54 9cbc 9c40 c43c 66ff 5d39 6f66 3ebc
000001f0: fc08 d9bb 6d07 413d 0629 eb3b c283 973b
00000200: 5243 9ebb b37b 4dbb fe37 ff3b 42c1 d7bb
00000210: 2fc5 08bd 7eeb 3cbb a8a6 c1bc 1ad3 33b9
00000220: 426b 693e 1202 95b8 2035 473b b337 413c
00000230: 8c0f 24bc cb59 f837 f5e8 b1bb 1a6b 4f3c
00000240: 7fd3 c3bc 7c16 2bbd ee0f c63b c9a5 64bb
00000250: 330d 573b 0411 fe3b 15ce 25bc 98fe a5bc
00000260: e90b b53b f61b 0ebc 24c1 8d3b 4934 fe3b
00000270: cc6c 44bc 1495 a0ba 2698 e9bb 8973 9abd
00000280: 9eb7 ec3b 0ca2 1ebe 10e5 c7bb c46e e9bb
00000290: 2f20 b63b a564 14bc 5c9c cc3b 4964 8e3b
000002a0: e56a 96bb 9abf 86bb 587f c0bb 1557 e1bb
000002b0: 8803 56bc 1cbe 383c 8253 bcbb 57b5 4a3e
000002c0: 8d08 02bb 9712 43bd 7f74 173c 9a22 90be
000002d0: 84c8 68bc 41df 0ebb 2bb2 0f3b 2d4f 78ba
000002e0: c2f8 19bc b37a eebb 5e59 aabb 6990 e1bb
000002f0: 5599 38bc ef93 d5bd 6f78 14bc d8a2 163c
00000300: 8d49 19bc d4f0 413c 86f8 e2bc de3e 84bb
00000310: 4d9d 0d3c 2987 e03b 9d2f 0a3c 4938 963b
00000320: a171 993b 1fcb 8c3c 33fa a5ba af85 ac3b
00000330: 2e15 c63b f5a1 0c3b 25a6 50ba 2280 f23b
00000340: 9cdc fa3b 64fb d5bb eb84 29bd 924a 9b3c
00000350: 971c fa3a 0dd1 b13b 5952 97bb 0df3 a33a
00000360: 2057 2cbc 599f 97be 6212 e9ba d9f0 d03b
00000370: d7d5 cb3b 29bc d93a cdbc d8ba 4430 d63b
00000380: 98c6 ab3c 861b 033b 526d a0b9 1a2a 0b3c
00000390: 8ce7 41bc 3eff d53b 1c82 a8ba c255 b9bc
000003a0: 392f 04b9 85b9 40bd 8f4f f53a 63dd 5cbb
000003b0: 39a7 a63b 8932 f7bb ee8e 243a 75a7 1e3b
000003c0: c062 ad3b 5fb4 22bc 0de7 c63b 9545 e2bb
000003d0: eb35 61bd 667a 64bb 6651 c439 88ea 083c
000003e0: a9a6 09be cbff 03be f549 10be 6479 be3d
000003f0: e285 eb3b 4db7 db3c 7570 beba b770 133c
-0.0073775467 0.0056795143 -0.008595882 -0.0063521503 -0.0038420141 -0.0067999484 0.09327275 0.00701942
-0.01221458 -0.0018929901 0.006678407 -0.0036640798 0.0056925784 0.00961326 -0.005123345 -0.0069062207
0.12624577 0.0065547386 -0.01673015 -0.009294238 0.008841424 -0.0058382214 -0.003819676 0.006001978
-0.006845513 0.0031925156 0.0053234953 -0.011249653 -0.005790151 0.0059441156 0.004876543 0.019059766
-0.0059930203 0.0014816158 -0.003572267 0.00714179 0.006086345 -0.0035056903 -0.016708592 -0.0047960384
0.0021563529 0.0039081424 0.0022120576 -0.059543785 0.017640904 0.072451316 -0.006550675 0.003919166
-0.05229617 -0.050519917 -0.0050783237 0.0813104 -0.0049699266 -0.007972411 -0.0053522605 0.0039220816
-0.03681736 0.09577541 0.02054913 0.0019285651 0.0041303798 -0.19078414 0.0037212328 -0.008171983
-0.008398549 -0.007824834 0.0062850043 -0.008317951 0.00735836 -0.0075678704 -0.0019574321 -0.06855666
-0.009353794 0.0060824687 -0.003871256 0.008474934 0.0070762844 0.3170716 0.010969222 -0.0036814157
-0.01264466 0.00985118 0.043918107 -0.0073581995 0.007389663 0.0062172427 0.006010285 0.006221653
-0.0011407121 -0.008602738 -0.00074158795 0.0083435895 0.009492108 -0.0065592905 -0.0032901808 -0.0006517369
0.013617608 -0.010243472 -0.000209108 0.028246596 0.009707388 0.009217767 0.007606249 0.15088387
-0.009002848 -0.0074338783 0.008210614 -0.055356584 -0.029910283 0.009150523 -0.010093321 0.055475686
0.113084026 0.023183493 -0.004951658 0.0062529603 -0.10084422 -0.007458857 -0.071103305 0.014627026
-0.019083375 0.02395659 0.00021171346 -0.011621102 -0.0066233855 0.047126222 0.0071765212 0.004623861
-0.0048298026 -0.0031354248 0.007788657 -0.0065843174 -0.033391174 -0.0028826888 -0.023639038 -0.00017149412
0.22794822 -7.105259e-05 0.0030396655 0.011793065 -0.010013472 2.9605717e-05 -0.005429382 0.012659812
-0.02390456 -0.04176949 0.0060443794 -0.0034888855 0.0032814264 0.0077534933 -0.010119935 -0.020263001
0.0055251014 -0.008673659 0.0043260027 0.0077576977 -0.01198883 -0.001225146 -0.007128733 -0.07541568
0.0072240373 -0.15491503 -0.0061003044 -0.0071238 0.005558036 -0.009057199 0.0062442254 0.004345451
-0.0045903795 -0.004112196 -0.0058745556 -0.006876836 -0.013062365 0.011275794 -0.0057472596 0.19795738
-0.0019841522 -0.04762515 0.009244083 -0.281514 -0.014207963 -0.002180055 0.0021926265 -0.00094722473
-0.009397687 -0.0072778105 -0.0051986417 -0.00688367 -0.011267026 -0.10428607 -0.009061917 0.009194098
-0.009355915 0.011837203 -0.027706396 -0.0040358147 0.00864346 0.00685205 0.008434203 0.0045843464
0.004682735 0.0171867 -0.0012663066 0.0052649598 0.0060450053 0.0021458839 -0.0007959328 0.0074005285
0.007655693 -0.0065302122 -0.041386526 0.018956456 0.0019082007 0.005426532 -0.004617971 0.0012508348
-0.010518819 -0.2961376 -0.0017781968 0.0063763675 0.00622056 0.0016611862 -0.0016535759 0.0065365154
0.02096872 0.002000542 -0.00030599028 0.0084939245 -0.01183499 0.0065306714 -0.0012856158 -0.0226239
-0.00012606093 -0.047051925 0.0018715727 -0.0033701293 0.0050858525 -0.007543866 0.00062774017 0.00242087
0.005291313 -0.009930699 0.006070024 -0.0069052675 -0.05498306 -0.0034862994 0.0003744468 0.008356698
-0.13442482 -0.12890546 -0.14090712 0.09300497 0.007187591 0.026820803 -0.0014529364 0.008999041
